…
________________________________________________\n"," Layer (type)                   Output Shape         Param #     Connected to                     \n","==================================================================================================\n"," input_1 (InputLayer)           [(None, 128, 128, 3  0           []                               \n","                                )]                                                                \n","                                                                                                  \n"," Conv1 (Conv2D)                 (None, 64, 64, 32)   864         ['input_1[0][0]']                \n","                                                                                                  \n"," bn_Conv1 (BatchNormalization)  (None, 64, 64, 32)   128         ['Conv1[0][0]']                  \n","                                                                                                  \n"," Conv1_relu (ReLU)              (None, 64, 64, 32)   0           ['bn_Conv1[0][0]']               \n","                                                                                                  \n"," expanded_conv_depthwise (Depth  (None, 64, 64, 32)  288         ['Conv1_relu[0][0]']             \n"," wiseConv2D)                                                                                      \n","                                                                                                  \n"," expanded_conv_depthwise_BN (Ba  (None, 64, 64, 32)  128         ['expanded_conv_depthwise[0][0]']\n"," tchNormalization)                                                                                \n","                                                                                                  \n"," expanded_conv_depthwise_relu (  (None, 64, 64, 32)  0           ['expanded_conv_depthwise_BN[0][0\n"," ReLU)                                                           ]']                              \n","                                                                                                  \n"," expanded_conv_project (Conv2D)  (None, 64, 64, 16)  512         ['expanded_conv_depthwise_relu[0]\n","                                                                 [0]']                            \n","                                                                                                  \n"," expanded_conv_project_BN (Batc  (None, 64, 64, 16)  64          ['expanded_conv_project[0][0]']  \n"," hNormalization)                                                                                  \n","                                                                                                  \n"," block_1_expand (Conv2D)        (None, 64, 64, 96)   1536        ['expanded_conv_project_BN[0][0]'\n","                                                                 ]                                \n","                                                                                                  \n"," block_1_expand_BN (BatchNormal  (None, 64, 64, 96)  384         ['block_1_expand[0][0]']         \n"," ization)                                                                                         \n","                                                                                                  \n"," block_1_expand_relu (ReLU)     (None, 64, 64, 96)   0           ['block_1_expand_BN[0][0]']      \n","                                                                                                  \n"," block_1_pad (ZeroPadding2D)    (None, 65, 65, 96)   0           ['block_1_expand_relu[0][0]']    \n","                                                                                                  \n"," block_1_depthwise (DepthwiseCo  (None, 32, 32, 96)  864         ['block_1_pad[0][0]']            \n"," nv2D)                                                                                            \n","                                                                                                  \n"," block_1_depthwise_BN (BatchNor  (None, 32, 32, 96)  384         ['block_1_depthwise[0][0]']      \n"," malization)                                                                                      \n","                                                                                                  \n"," block_1_depthwise_relu (ReLU)  (None, 32, 32, 96)   0           ['block_1_depthwise_BN[0][0]']   \n","                                                                                                  \n"," block_1_project (Conv2D)       (None, 32, 32, 24)   2304        ['block_1_depthwise_relu[0][0]'] \n","                                                                                                  \n"," block_1_project_BN (BatchNorma  (None, 32, 32, 24)  96          ['block_1_project[0][0]']        \n"," lization)                                                                                        \n","                                                                                                  \n"," block_2_expand (Conv2D)        (None, 32, 32, 144)  3456        ['block_1_project_BN[0][0]']     \n","                                                                                                  \n"," block_2_expand_BN (BatchNormal  (None, 32, 32, 144)  576        ['block_2_expand[0][0]']         \n"," ization)                                                                                         \n","                                                                                                  \n"," block_2_expand_relu (ReLU)     (None, 32, 32, 144)  0           ['block_2_expand_BN[0][0]']      \n","                                                                                                  \n"," block_2_depthwise (DepthwiseCo  (None, 32, 32, 144)  1296       ['block_2_expand_relu[0][0]']    \n"," nv2D)                                                                                            \n","                                                                                                  \n"," block_2_depthwise_BN (BatchNor  (None, 32, 32, 144)  576        ['block_2_depthwise[0][0]']      \n"," malization)                                                                                      \n","                                                                                                  \n"," block_2_depthwise_relu (ReLU)  (None, 32, 32, 144)  0           ['block_2_depthwise_BN[0][0]']   \n","                                                                                                  \n"," block_2_project (Conv2D)       (None, 32, 32, 24)   3456        ['block_2_depthwise_relu[0][0]'] \n","                                                                                                  \n"," block_2_project_BN (BatchNorma  (None, 32, 32, 24)  96          ['block_2_project[0][0]']        \n"," lization)                                                                                        \n","                                                                                                  \n"," block_2_add (Add)              (None, 32, 32, 24)   0           ['block_1_project_BN[0][0]',     \n","                                                                  'block_2_project_BN[0][0]']     \n","                                                                                                  \n"," block_3_expand (Conv2D)        (None, 32, 32, 144)  3456        ['block_2_add[0][0]']            \n","                                                                                                  \n"," block_3_expand_BN (BatchNormal  (None, 32, 32, 144)  576        ['block_3_expand[0][0]']         \n"," ization)                                                                                         \n","                                                                                                  \n"," block_3_expand_relu (ReLU)     (None, 32, 32, 144)  0           ['block_3_expand_BN[0][0]']      \n","                                                                                                  \n"," block_3_pad (ZeroPadding2D)    (None, 33, 33, 144)  0           ['block_3_expand_relu[0][0]']    \n","                                                                                                  \n"," block_3_depthwise (DepthwiseCo  (None, 16, 16, 144)  1296       ['block_3_pad[0][0]']            \n"," nv2D)                                                                                            \n","                                                                                                  \n"," block_3_depthwise_BN (BatchNor  (None, 16, 16, 144)  576        ['block_3_depthwise[0][0]']      \n"," malization)                                                                                      \n","                                                                                                  \n"," block_3_depthwise_relu (ReLU)  (None, 16, 16, 144)  0           ['block_3_depthwise_BN[0][0]']   \n","                                                                                                  \n"," block_3_project (Conv2D)       (None, 16, 16, 32)   4608        ['block_3_depthwise_relu[0][0]'] \n","                                                                                                  \n"," block_3_project_BN (BatchNorma  (None, 16, 16, 32)  128         ['block_3_project[0][0]']        \n"," lization)                                                                                        \n","                                                                                                  \n"," block_4_expand (Conv2D)        (None, 16, 16, 192)  6144        ['block_3_project_BN[0][0]']     \n","                                                                                                  \n"," block_4_expand_BN (BatchNormal  (None, 16, 16, 192)  768        ['block_4_expand[0][0]']         \n"," ization)                                                                                         \n","                                                                                                  \n"," block_4_expand_relu (ReLU)     (None, 16, 16, 192)  0           ['block_4_expand_BN[0][0]']      \n","                                                                                                  \n"," block_4_depthwise (DepthwiseCo  (None, 16, 16, 192)  1728       ['block_4_expand_relu[0][0]']    \n"," nv2D)                                                                                            \n","                                                                                                  \n"," block_4_depthwise_BN (BatchNor  (None, 16, 16, 192)  768        ['block_4_depthwise[0][0]']      \n"," malization)                                                                                      \n","                                                                                                  \n"," block_4_depthwise_relu (ReLU)  (None, 16, 16, 192)  0           ['block_4_depthwise_BN[0][0]']   \n","                                                                                                  \n"," block_4_project (Conv2D)       (None, 16, 16, 32)   6144        ['block_4_depthwise_relu[0][0]'] \n","                                                                                                  \n"," block_4_project_BN (BatchNorma  (None, 16, 16, 32)  128         ['block_4_project[0][0]']        \n"," lization)                                                                                        \n","                                                                                                  \n"," block_4_add (Add)              (None, 16, 16, 32)   0           ['block_3_project_BN[0][0]',     \n","                                                                  'block_4_project_BN[0][0]']     \n","                                                                                                  \n"," block_5_expand (Conv2D)        (None, 16, 16, 192)  6144        ['block_4_add[0][0]']            \n","                                                                                                  \n"," block_5_expand_BN (BatchNormal  (None, 16, 16, 192)  768        ['block_5_expand[0][0]']         \n"," ization)                                                                                         \n","                                                                                                  \n"," block_5_expand_relu (ReLU)     (None, 16, 16, 192)  0           ['block_5_expand_BN[0][0]']      \n","                                                                                                  \n"," block_5_depthwise (DepthwiseCo  (None, 16, 16, 192)  1728       ['block_5_expand_relu[0][0]']    \n"," nv2D)                                                                                            \n","                                                                                                  \n"," block_5_depthwise_BN (BatchNor  (None, 16, 16, 192)  768        ['block_5_depthwise[0][0]']      \n"," malization)                                                                                      \n","                                                                                                  \n"," block_5_depthwise_relu (ReLU)  (None, 16, 16, 192)  0           ['block_5_depthwise_BN[0][0]']   \n","                                                                                                  \n"," block_5_project (Conv2D)       (None, 16, 16, 32)   6144        ['block_5_depthwise_relu[0][0]'] \n","                                                                                                  \n"," block_5_project_BN (BatchNorma  (None, 16, 16, 32)  128         ['block_5_project[0][0]']        \n"," lization)                                                                                        \n","                                                                                                  \n"," block_5_add (Add)              (None, 16, 16, 32)   0           ['block_4_add[0][0]',            \n","                                                                  'block_5_project_BN[0][0]']     \n","                                                                                                  \n"," block_6_expand (Conv2D)        (None, 16, 16, 192)  6144        ['block_5_add[0][0]']            \n","                                                                                                  \n"," block_6_expand_BN (BatchNormal  (None, 16, 16, 192)  768        ['block_6_expand[0][0]']         \n"," ization)                                                                                         \n","                                                                                                  \n"," block_6_expand_relu (ReLU)     (None, 16, 16, 192)  0           ['block_6_expand_BN[0][0]']      \n","                                                                                                  \n"," block_6_pad (ZeroPadding2D)    (None, 17, 17, 192)  0           ['block_6_expand_relu[0][0]']    \n","                                                                                                  \n"," block_6_depthwise (DepthwiseCo  (None, 8, 8, 192)   1728        ['block_6_pad[0][0]']            \n"," nv2D)                                                                                            \n","                                                                                                  \n"," block_6_depthwise_BN (BatchNor  (None, 8, 8, 192)   768         ['block_6_depthwise[0][0]']      \n"," malization)                                                                                      \n","                                                                                                  \n"," block_6_depthwise_relu (ReLU)  (None, 8, 8, 192)    0           ['block_6_depthwise_BN[0][0]']   \n","                                                                                                  \n"," block_6_project (Conv2D)       (None, 8, 8, 64)     12288       ['block_6_depthwise_relu[0][0]'] \n","                                                                                                  \n"," block_6_project_BN (BatchNorma  (None, 8, 8, 64)    256         ['block_6_project[0][0]']        \n"," lization)                                                                                        \n","                                                                                                  \n"," block_7_expand (Conv2D)        (None, 8, 8, 384)    24576       ['block_6_project_BN[0][0]']     \n","                                                                                                  \n"," block_7_expand_BN (BatchNormal  (None, 8, 8, 384)   1536        ['block_7_expand[0][0]']         \n"," ization)                                                                                         \n","                                                                                                  \n"," block_7_expand_relu (ReLU)     (None, 8, 8, 384)    0           ['block_7_expand_BN[0][0]']      \n","                                                                                                  \n"," block_7_depthwise (DepthwiseCo  (None, 8, 8, 384)   3456        ['block_7_expand_relu[0][0]']    \n"," nv2D)                                                                                            \n","                                                                                                  \n"," block_7_depthwise_BN (BatchNor  (None, 8, 8, 384)   1536        ['block_7_depthwise[0][0]']      \n"," malization)                                                                                      \n","                                                                                                  \n"," block_7_depthwise_relu (ReLU)  (None, 8, 8, 384)    0           ['block_7_depthwise_BN[0][0]']   \n","                                                                                                  \n"," block_7_project (Conv2D)       (None, 8, 8, 64)     24576       ['block_7_depthwise_relu[0][0]'] \n","                                                                                                  \n"," block_7_project_BN (BatchNorma  (None, 8, 8, 64)    256         ['block_7_project[0][0]']        \n"," lization)                                                                                        \n","                                                                                                  \n"," block_7_add (Add)              (None, 8, 8, 64)     0           ['block_6_project_BN[0][0]',     \n","                                                                  'block_7_project_BN[0][0]']     \n","                                                                                                  \n"," block_8_expand (Conv2D)        (None, 8, 8, 384)    24576       ['block_7_add[0][0]']            \n","                                                                                                  \n"," block_8_expand_BN (BatchNormal  (None, 8, 8, 384)   1536        ['block_8_expand[0][0]']         \n"," ization)                                                                                         \n","                                                                                                  \n"," block_8_expand_relu (ReLU)     (None, 8, 8, 384)    0           ['block_8_expand_BN[0][0]']      \n","                                                                                                  \n"," block_8_depthwise (DepthwiseCo  (None, 8, 8, 384)   3456        ['block_8_expand_relu[0][0]']    \n"," nv2D)                                                                                            \n","                                                                                                  \n"," block_8_depthwise_BN (BatchNor  (None, 8, 8, 384)   1536        ['block_8_depthwise[0][0]']      \n"," malization)                                                                                      \n","                                                                                                  \n"," block_8_depthwise_relu (ReLU)  (None, 8, 8, 384)    0           ['block_8_depthwise_BN[0][0]']   \n","                                                                                                  \n"," block_8_project (Conv2D)       (None, 8, 8, 64)     24576       ['block_8_depthwise_relu[0][0]'] \n","                                                                                                  \n"," block_8_project_BN (BatchNorma  (None, 8, 8, 64)    256         ['block_8_project[0][0]']        \n"," lization)                                                                                        \n","                                                                                                  \n"," block_8_add (Add)              (None, 8, 8, 64)     0           ['block_7_add[0][0]',            \n","                                                                  'block_8_project_BN[0][0]']     \n","                                                                                                  \n"," block_9_expand (Conv2D)        (None, 8, 8, 384)    24576       ['block_8_add[0][0]']            \n","                                                                                                  \n"," block_9_expand_BN (BatchNormal  (None, 8, 8, 384)   1536        ['block_9_expand[0][0]']         \n"," ization)                                                                                         \n","                                                                                                  \n"," block_9_expand_relu (ReLU)     (None, 8, 8, 384)    0           ['block_9_expand_BN[0][0]']      \n","                                                                                                  \n"," block_9_depthwise (DepthwiseCo  (None, 8, 8, 384)   3456        ['block_9_expand_relu[0][0]']    \n"," nv2D)                                                                                            \n","                                                                                                  \n"," block_9_depthwise_BN (BatchNor  (None, 8, 8, 384)   1536        ['block_9_depthwise[0][0]']      \n"," malization)                                                                                      \n","                                                                                                  \n"," block_9_depthwise_relu (ReLU)  (None, 8, 8, 384)    0           ['block_9_depthwise_BN[0][0]']   \n","                                                                                                  \n"," block_9_project (Conv2D)       (None, 8, 8, 64)     24576       ['block_9_depthwise_relu[0][0]'] \n","                                                                                                  \n"," block_9_project_BN (BatchNorma  (None, 8, 8, 64)    256         ['block_9_project[0][0]']        \n"," lization)                                                                                        \n","                                                                                                  \n"," block_9_add (Add)              (None, 8, 8, 64)     0           ['block_8_add[0][0]',            \n","                                                                  'block_9_project_BN[0][0]']     \n","                                                                                                  \n"," block_10_expand (Conv2D)       (None, 8, 8, 384)    24576       ['block_9_add[0][0]']            \n","                                                                                                  \n"," block_10_expand_BN (BatchNorma  (None, 8, 8, 384)   1536        ['block_10_expand[0][0]']        \n"," lization)                                                                                        \n","                                                                                                  \n"," block_10_expand_relu (ReLU)    (None, 8, 8, 384)    0           ['block_10_expand_BN[0][0]']     \n","                                                                                                  \n"," block_10_depthwise (DepthwiseC  (None, 8, 8, 384)   3456        ['block_10_expand_relu[0][0]']   \n"," onv2D)                                                                                           \n","                                                                                                  \n"," block_10_depthwise_BN (BatchNo  (None, 8, 8, 384)   1536        ['block_10_depthwise[0][0]']     \n"," rmalization)                                                                                     \n","                                                                                                  \n"," block_10_depthwise_relu (ReLU)  (None, 8, 8, 384)   0           ['block_10_depthwise_BN[0][0]']  \n","                                                                                                  \n"," block_10_project (Conv2D)      (None, 8, 8, 96)     36864       ['block_10_depthwise_relu[0][0]']\n","                                                                                                  \n"," block_10_project_BN (BatchNorm  (None, 8, 8, 96)    384         ['block_10_project[0][0]']       \n"," alization)                                                                                       \n","                                                                                                  \n"," block_11_expand (Conv2D)       (None, 8, 8, 576)    55296       ['block_10_project_BN[0][0]']    \n","                                                                                                  \n"," block_11_expand_BN (BatchNorma  (None, 8, 8, 576)   2304        ['block_11_expand[0][0]']        \n"," lization)                                                                                        \n","                                                                                                  \n"," block_11_expand_relu (ReLU)    (None, 8, 8, 576)    0           ['block_11_expand_BN[0][0]']     \n","                                                                                                  \n"," block_11_depthwise (DepthwiseC  (None, 8, 8, 576)   5184        ['block_11_expand_relu[0][0]']   \n"," onv2D)                                                                                           \n","                                                                                                  \n"," block_11_depthwise_BN (BatchNo  (None, 8, 8, 576)   2304        ['block_11_depthwise[0][0]']     \n"," rmalization)                                                                                     \n","                                                                                                  \n"," block_11_depthwise_relu (ReLU)  (None, 8, 8, 576)   0           ['block_11_depthwise_BN[0][0]']  \n","                                                                                                  \n"," block_11_project (Conv2D)      (None, 8, 8, 96)     55296       ['block_11_depthwise_relu[0][0]']\n","                                                                                                  \n"," block_11_project_BN (BatchNorm  (None, 8, 8, 96)    384         ['block_11_project[0][0]']       \n"," alization)                                                                                       \n","                                                                                                  \n"," block_11_add (Add)             (None, 8, 8, 96)     0           ['block_10_project_BN[0][0]',    \n","                                                                  'block_11_project_BN[0][0]']    \n","                                                                                                  \n"," block_12_expand (Conv2D)       (None, 8, 8, 576)    55296       ['block_11_add[0][0]']           \n","                                                                                                  \n"," block_12_expand_BN (BatchNorma  (None, 8, 8, 576)   2304        ['block_12_expand[0][0]']        \n"," lization)                                                                                        \n","                                                                                                  \n"," block_12_expand_relu (ReLU)    (None, 8, 8, 576)    0           ['block_12_expand_BN[0][0]']     \n","                                                                                                  \n"," block_12_depthwise (DepthwiseC  (None, 8, 8, 576)   5184        ['block_12_expand_relu[0][0]']   \n"," onv2D)                                                                                           \n","                                                                                                  \n"," block_12_depthwise_BN (BatchNo  (None, 8, 8, 576)   2304        ['block_12_depthwise[0][0]']     \n"," rmalization)                                                                                     \n","                                                                                                  \n"," block_12_depthwise_relu (ReLU)  (None, 8, 8, 576)   0           ['block_12_depthwise_BN[0][0]']  \n","                                                                                                  \n"," block_12_project (Conv2D)      (None, 8, 8, 96)     55296       ['block_12_depthwise_relu[0][0]']\n","                                                                                                  \n"," block_12_project_BN (BatchNorm  (None, 8, 8, 96)    384         ['block_12_project[0][0]']       \n"," alization)                                                                                       \n","                                                                                                  \n"," block_12_add (Add)             (None, 8, 8, 96)     0           ['block_11_add[0][0]',           \n","                                                                  'block_12_project_BN[0][0]']    \n","                                                                                                  \n"," block_13_expand (Conv2D)       (None, 8, 8, 576)    55296       ['block_12_add[0][0]']           \n","                                                                                                  \n"," block_13_expand_BN (BatchNorma  (None, 8, 8, 576)   2304        ['block_13_expand[0][0]']        \n"," lization)                                                                                        \n","                                                                                                  \n"," block_13_expand_relu (ReLU)    (None, 8, 8, 576)    0           ['block_13_expand_BN[0][0]']     \n","                                                                                                  \n"," block_13_pad (ZeroPadding2D)   (None, 9, 9, 576)    0           ['block_13_expand_relu[0][0]']   \n","                                                                                                  \n"," block_13_depthwise (DepthwiseC  (None, 4, 4, 576)   5184        ['block_13_pad[0][0]']           \n"," onv2D)                                                                                           \n","                                                                                                  \n"," block_13_depthwise_BN (BatchNo  (None, 4, 4, 576)   2304        ['block_13_depthwise[0][0]']     \n"," rmalization)                                                                                     \n","                                                                                                  \n"," block_13_depthwise_relu (ReLU)  (None, 4, 4, 576)   0           ['block_13_depthwise_BN[0][0]']  \n","                                                                                                  \n"," block_13_project (Conv2D)      (None, 4, 4, 160)    92160       ['block_13_depthwise_relu[0][0]']\n","                                                                                                  \n"," block_13_project_BN (BatchNorm  (None, 4, 4, 160)   640         ['block_13_project[0][0]']       \n"," alization)                                                                                       \n","                                                                                                  \n"," block_14_expand (Conv2D)       (None, 4, 4, 960)    153600      ['block_13_project_BN[0][0]']    \n","                                                                                                  \n"," block_14_expand_BN (BatchNorma  (None, 4, 4, 960)   3840        ['block_14_expand[0][0]']        \n"," lization)                                                                                        \n","                                                                                                  \n"," block_14_expand_relu (ReLU)    (None, 4, 4, 960)    0           ['block_14_expand_BN[0][0]']     \n","                                                                                                  \n"," block_14_depthwise (DepthwiseC  (None, 4, 4, 960)   8640        ['block_14_expand_relu[0][0]']   \n"," onv2D)                                                                                           \n","                                                                                                  \n"," block_14_depthwise_BN (BatchNo  (None, 4, 4, 960)   3840        ['block_14_depthwise[0][0]']     \n"," rmalization)                                                                                     \n","                                                                                                  \n"," block_14_depthwise_relu (ReLU)  (None, 4, 4, 960)   0           ['block_14_depthwise_BN[0][0]']  \n","                                                                                                  \n"," block_14_project (Conv2D)      (None, 4, 4, 160)    153600      ['block_14_depthwise_relu[0][0]']\n","                                                                                                  \n"," block_14_project_BN (BatchNorm  (None, 4, 4, 160)   640         ['block_14_project[0][0]']       \n"," alization)                                                                                       \n","                                                                                                  \n"," block_14_add (Add)             (None, 4, 4, 160)    0           ['block_13_project_BN[0][0]',    \n","                                                                  'block_14_project_BN[0][0]']    \n","                                                                                                  \n"," block_15_expand (Conv2D)       (None, 4, 4, 960)    153600      ['block_14_add[0][0]']           \n","                                                                                                  \n"," block_15_expand_BN (BatchNorma  (None, 4, 4, 960)   3840        ['block_15_expand[0][0]']        \n"," lization)                                                                                        \n","                                                                                                  \n"," block_15_expand_relu (ReLU)    (None, 4, 4, 960)    0           ['block_15_expand_BN[0][0]']     \n","                                                                                                  \n"," block_15_depthwise (DepthwiseC  (None, 4, 4, 960)   8640        ['block_15_expand_relu[0][0]']   \n"," onv2D)                                                                                           \n","                                                                                                  \n"," block_15_depthwise_BN (BatchNo  (None, 4, 4, 960)   3840        ['block_15_depthwise[0][0]']     \n"," rmalization)                                                                                     \n","                                                                                                  \n"," block_15_depthwise_relu (ReLU)  (None, 4, 4, 960)   0           ['block_15_depthwise_BN[0][0]']  \n","                                                                                                  \n"," block_15_project (Conv2D)      (None, 4, 4, 160)    153600      ['block_15_depthwise_relu[0][0]']\n","                                                                                                  \n"," block_15_project_BN (BatchNorm  (None, 4, 4, 160)   640         ['block_15_project[0][0]']       \n"," alization)                                                                                       \n","                                                                                                  \n"," block_15_add (Add)             (None, 4, 4, 160)    0           ['block_14_add[0][0]',           \n","                                                                  'block_15_project_BN[0][0]']    \n","                                                                                                  \n"," block_16_expand (Conv2D)       (None, 4, 4, 960)    153600      ['block_15_add[0][0]']           \n","                                                                                                  \n"," block_16_expand_BN (BatchNorma  (None, 4, 4, 960)   3840        ['block_16_expand[0][0]']        \n"," lization)                                                                                        \n","                                                                                                  \n"," block_16_expand_relu (ReLU)    (None, 4, 4, 960)    0           ['block_16_expand_BN[0][0]']     \n","                                                                                                  \n"," block_16_depthwise (DepthwiseC  (None, 4, 4, 960)   8640        ['block_16_expand_relu[0][0]']   \n"," onv2D)                                                                                           \n","                                                                                                  \n"," block_16_depthwise_BN (BatchNo  (None, 4, 4, 960)   3840        ['block_16_depthwise[0][0]']     \n"," rmalization)                                                                                     \n","                                                                                                  \n"," block_16_depthwise_relu (ReLU)  (None, 4, 4, 960)   0           ['block_16_depthwise_BN[0][0]']  \n","                                                                                                  \n"," block_16_project (Conv2D)      (None, 4, 4, 320)    307200      ['block_16_depthwise_relu[0][0]']\n","                                                                                                  \n"," block_16_project_BN (BatchNorm  (None, 4, 4, 320)   1280        ['block_16_project[0][0]']       \n"," alization)                                                                                       \n","                                                                                                  \n"," Conv_1 (Conv2D)                (None, 4, 4, 1280)   409600      ['block_16_project_BN[0][0]']    \n","                                                                                                  \n"," Conv_1_bn (BatchNormalization)  (None, 4, 4, 1280)  5120        ['Conv_1[0][0]']                 \n","                                                                                                  \n"," out_relu (ReLU)                (None, 4, 4, 1280)   0           ['Conv_1_bn[0][0]']              \n","                                                                                                  \n","==================================================================================================\n","Total params: 2,257,984\n","Trainable params: 0\n","Non-trainable params: 2,257,984\n","_________________________________________________________
…
":{"displayName":"ECE324 Group","userId":"00541832639107211620"}},"outputId":"00bcf17f-7b25-46c4-95c6-af2f6c21bc31"},"execution_count":null,"outputs":[{"output_type":"stream","name":"stdout","text":["Model: \"model\"\n","_________________________________________________________________\n"," Layer (type)                Output Shape              Param #   \n","=================================================================\n"," input_2 (InputLayer)        [(None, 128, 128, 3)]     0         \n","                                                                 \n"," sequential (Sequential)     (None, 128, 128, 3)       0         \n","                                                                 \n"," tf.math.truediv (TFOpLambda  (None, 128, 128, 3)      0         \n"," )                                                               \n","                                                                 \n"," tf.math.subtract (TFOpLambd  (None, 128, 128, 3)      0         \n"," a)                                                              \n","                                                                 \n"," mobilenetv2_1.00_128 (Funct  (None, 4, 4, 1280)       2257984   \n"," ional)                                                          \n","                                                                 \n"," global_average_pooling2d (G  (None, 1280)             0         \n"," lobalAveragePooling2D)                                          \n","                                                                 \n"," dropout (Dropout)           (None, 1280)              0         \n","                                                                 \n"," dense (Dense)               (None, 1)                 1281      \n","                                                                 \n","=================================================================\n","Total params: 2,259,265\n","Trainable params: 1,281\n","Non-trainable params: 2,257,984\n","_________________________________________________________________\n"]}]},{"cell_type":"code","source":["len(model.trainable_variables)"],"metadata":{"colab":
…
