…
,"execution_count":null,"metadata":{"colab":{"background_save":true},"id":"Yp22CSHPPRWq","outputId":"34e7eb49-86d0-430d-c6dd-a3b3e31aa3eb"},"outputs":[{"name":"stdout","output_type":"stream","text":["Model: \"vgg16\"\n","_________________________________________________________________\n"," Layer (type)                Output Shape              Param #   \n","=================================================================\n"," input_1 (InputLayer)        [(None, 128, 128, 3)]     0         \n","                                                                 \n"," block1_conv1 (Conv2D)       (None, 128, 128, 64)      1792      \n","                                                                 \n"," block1_conv2 (Conv2D)       (None, 128, 128, 64)      36928     \n","                                                                 \n"," block1_pool (MaxPooling2D)  (None, 64, 64, 64)        0         \n","                                                                 \n"," block2_conv1 (Conv2D)       (None, 64, 64, 128)       73856     \n","                                                                 \n"," block2_conv2 (Conv2D)       (None, 64, 64, 128)       147584    \n","                                                                 \n"," block2_pool (MaxPooling2D)  (None, 32, 32, 128)       0         \n","                                                                 \n"," block3_conv1 (Conv2D)       (None, 32, 32, 256)       295168    \n","                                                                 \n"," block3_conv2 (Conv2D)       (None, 32, 32, 256)       590080    \n","                                                                 \n"," block3_conv3 (Conv2D)       (None, 32, 32, 256)       590080    \n","                                                                 \n"," block3_pool (MaxPooling2D)  (None, 16, 16, 256)       0         \n","                                                                 \n"," block4_conv1 (Conv2D)       (None, 16, 16, 512)       1180160   \n","                                                                 \n"," block4_conv2 (Conv2D)       (None, 16, 16, 512)       2359808   \n","                                                                 \n"," block4_conv3 (Conv2D)       (None, 16, 16, 512)       2359808   \n","                                                                 \n"," block4_pool (MaxPooling2D)  (None, 8, 8, 512)         0         \n","                                                                 \n"," block5_conv1 (Conv2D)       (None, 8, 8, 512)         2359808   \n","                                                                 \n"," block5_conv2 (Conv2D)       (None, 8, 8, 512)         2359808   \n","                                                                 \n"," block5_conv3 (Conv2D)       (None, 8, 8, 512)         2359808   \n","                                                                 \n"," block5_pool (MaxPooling2D)  (None, 4, 4, 512)         0         \n","                                                                 \n","=================================================================\n","Total params: 14,714,688\n","Trainable params: 0\n","Non-trainable params: 14,714,688\n","_________________________________________________________________\n"]}],"source":["# Let's take a look at the base model architecture\n","base_model.summary
…
,"execution_count":null,"metadata":{"colab":{"background_save":true},"id":"K8jjlLwiQ5G1","outputId":"c7203178-48e6-4b38-fb7d-673fbe74c04a"},"outputs":[{"name":"stdout","output_type":"stream","text":["Model: \"model\"\n","_________________________________________________________________\n"," Layer (type)                Output Shape              Param #   \n","=================================================================\n"," input_2 (InputLayer)        [(None, 128, 128, 3)]     0         \n","                                                                 \n"," sequential (Sequential)     (None, 128, 128, 3)       0         \n","                                                                 \n"," tf.__operators__.getitem (S  (None, 128, 128, 3)      0         \n"," licingOpLambda)                                                 \n","                                                                 \n"," tf.nn.bias_add (TFOpLambda)  (None, 128, 128, 3)      0         \n","                                                                 \n"," vgg16 (Functional)          (None, 4, 4, 512)         14714688  \n","                                                                 \n"," global_average_pooling2d (G  (None, 512)              0         \n"," lobalAveragePooling2D)                                          \n","                                                                 \n"," dropout (Dropout)           (None, 512)               0         \n","                                                                 \n"," dense (Dense)               (None, 1)                 513       \n","                                                                 \n","=================================================================\n","Total params: 14,715,201\n","Trainable params: 513\n","Non-trainable params: 14,714,688\n","_________________________________________________________________\n"]}],"source":["model.summary()"]},{"cell_type":"code","execution_count":null,"metadata":
…
